saved_models/FashionMNIST_classifier.pt (torch_old, 111247 bytes, 8 tensors)

conv1.weight f4 [10, 1, 3, 3]
000000 89 02 da be 1b 24 64 be a9 4d 23 3f 44 5a b8 be
       -0.4258006 -0.22279398 0.63790375 -0.36006367
000010 6d ff d5 be 81 5b 33 3f 54 1d 14 bf c4 e8 35 3e
       -0.41796437 0.700615 -0.5785725 0.17764574
000020 4e 0d 6f 3e 47 1c 07 3e 4f b8 96 be 14 ba 9d 3d
       0.23344919 0.1319438 -0.2943749 0.07701507
000030 29 71 a7 3d 66 2d 9a be bf 77 b9 bd 0e f1 98 be
       0.081758805 -0.3011276 -0.09056043 -0.2987141
000040 0b fe b7 3d f4 41 48 3e ca 2a f1 be 99 64 0f bf
       0.08984002 0.19556409 -0.47102958 -0.56012875
000050 c1 37 9c be c1 5b 9c be 9e b3 4b bf aa 57 15 bf
       -0.30511287 -0.30538753 -0.7957095 -0.5833689
000060 9f 36 1c be e3 5f dc be 2f 82 24 be 14 a4 cb be
       -0.15255211 -0.43041906 -0.16065286 -0.3977362
000070 ea 90 d9 be da 18 9e be a0 e2 ba 3e e9 62 f3 bd
       -0.42493373 -0.30878335 0.36501026 -0.118841
000080 0a fa 83 3e d9 ed a4 bd 91 c3 70 3e af c9 20 3e
       0.25776702 -0.08053178 0.23512103 0.15701936
000090 f6 23 07 bf 37 aa b3 3d 1a e8 0d 3f 96 3f 3d bf
       -0.5278925 0.087727 0.55432284 -0.7392515
0000a0 f9 fa 4e bd ad 3f 39 3f 45 81 00 bf fd 76 92 3d
       -0.050532315 0.72362787 -0.5019725 0.071516015
0000b0 59 ca bd 3e 3e 3f 2c 39 aa ed a1 be c4 8b 3c be
       0.37068442 0.00016426758 -0.31626636 -0.18412691
0000c0 02 94 ce 3e ea ce 90 be 05 f0 09 be c3 bb f5 3e
       0.40347296 -0.28282863 -0.13470466 0.47994813
0000d0 e5 c5 f1 be a2 ee db 3e ce 67 b4 3e ec 4d d0 3d
       -0.47221294 0.429555 0.35235447 0.101711124
0000e0 ca 0e 9c be 5a b6 65 3e 6a de 20 be d7 d2 9a 3e
       -0.30480033 0.22432843 -0.15709844 0.30238983
0000f0 82 9f d5 be d2 68 5d be 5c e6 6c 3d fd 85 9c 3e
       -0.41723257 -0.21622017 0.057836875 0.30570975
000100 a1 dc 55 be 76 88 da bc 51 c4 1f be 25 dd a9 3e
       -0.20884944 -0.026676398 -0.15602233 0.33176532
000110 ce 3f 94 be 7f 70 1c 3e e3 cc c3 be 19 eb 79 be
       -0.2895493 0.15277289 -0.38242254 -0.24406089
000120 5b 58 b0 be 47 95 ab be 7d 7d 2f 3f 73 d4 19 bf
       -0.3444241 -0.33512327 0.68550855 -0.60089797
000130 2c 8e ca 3d a5 d1 fb 3e c0 be 85 be e9 7b 6d 3d
       0.098903984 0.49183384 -0.26122093 0.057979498
000140 8e a7 66 3e b1 38 47 3f 97 59 a2 3f ef 67 ae 3f
       0.22524855 0.7782088 1.2683591 1.3625468
000150 f6 ee a0 3e 65 c5 59 3f fb c3 88 3f 0d 0f 4e 3f
       0.31432313 0.85066825 1.0684808 0.80491716
000160 82 fa 80 3f 64 2e f3 bb
       1.0076449 -0.0074213017

conv1.bias f4 [10]
000000 0e ce 6f 3e ef 1d 58 be 96 ee 2d 3f db c3 81 3d
       0.23418447 -0.21105169 0.6794218 0.063361846
000010 06 32 c4 3c a1 a5 82 3d be d7 92 3d 37 b2 d7 3e
       0.023949634 0.063792475 0.07170056 0.42128155
000020 3b fd 22 3b 32 e5 0d 3c
       0.0024870175 0.008660601

conv2.weight f4 [20, 10, 3, 3]
000000 93 32 f3 3d 23 67 11 bd 5b ec af 3c 57 e3 9a bd
       0.11874881 -0.03549875 0.021475008 -0.07562893
000010 d5 51 e6 3d b6 eb 1c bd 1b 4f 1e be c5 a4 19 3e
       0.11246077 -0.03831073 -0.15459864 0.15004261
000020 31 27 12 3d 35 c2 86 39 43 21 58 bd a9 ab d7 3c
       0.035681907 0.00025703167 -0.052766096 0.026326971
000030 5f a7 64 bc b2 2e 8b bc 7e 73 87 bd 82 07 05 3d
       -0.01395592 -0.01699004 -0.06613825 0.032477863
000040 72 f0 4d 3d 10 20 20 3d 73 88 7c 3d 2b 65 d9 3c
       0.050278135 0.039093077 0.061653566 0.026537498
000050 f4 07 05 3e 55 9e 4f bd b2 60 23 3e 77 a4 a2 3d
       0.12991315 -0.050688107 0.15954855 0.079415254
000060 09 2d 4c 3e de 33 f7 3d a9 72 bd 3d 1b 4a 95 bd
       0.19939055 0.1207044 0.09250385 -0.07289525
000070 dd 61 c0 3c 00 e9 7d bd c6 05 07 3c 24 ea b5 3d
       0.023484165 -0.061989784 0.008241123 0.088825494
000080 3b 1c 63 bd 5f b4 7b 3c ac e2 c1 bc a6 37 cd bd
       -0.055446845 0.015362828 -0.023667656 -0.1002038
000090 26 4d ee 3d 53 86 2a be b9 86 89 3d 1d 43 01 3e
       0.11635809 -0.16652803 0.067151494 0.12623258
0000a0 fd 0f cb 3d c7 17 ee 3d fc de 02 be 29 a8 0f 3e
       0.09915159 0.11625629 -0.12780374 0.14028992
0000b0 ab 85 2a 3c cf f0 b9 3d d3 19 64 bd be 90 52 3d
       0.0104078455 0.09079134 -0.05568869 0.05140757
0000c0 e9 4b 17 3c a9 ce 6b bd 7d 14 bc 3a 50 81 3e 3d
       0.009234407 -0.057570133 0.0014349368 0.04651004
0000d0 d3 7d f5 bc bb 05 98 bd 98 c8 85 bc 0b 17 e7 3d
       -0.029967224 -0.07422968 -0.016331002 0.11283692
0000e0 d1 78 c4 3c 29 03 c5 bc 29 23 5a 3c 8c 7f df 3b
       0.023983391 -0.024049358 0.013314047 0.0068206247
0000f0 9f eb 10 3e 98 3a e9 3d cc 61 e2 bc d9 b6 bf bd
       0.14152382 0.11388129 -0.027634524 -0.09361047
000100 18 86 60 3c 9b cd b6 bc 66 f7 df 3c bd 2a 66 3c
       0.013703845 -0.022314837 0.027339648 0.014048276
000110 89 76 bd 3c 90 87 d9 3d 71 99 1e 3d b2 d4 5f bd
       0.023127811 0.106215596 0.038720552 -0.0546462
000120 14 c9 54 3e f8 08 44 bd 14 5e 67 3d 69 de 02 3e
       0.2077983 -0.047860116 0.056486204 0.12780155
000130 f0 96 b0 bd 22 18 e8 3d 88 ff c0 bd 0d 10 0a 3e
       -0.08622539 0.11332728 -0.09423739 0.13482685
000140 81 71 38 3e cd 58 c6 3e 6e 6f b2 3e 11 f8 55 be
       0.18012048 0.38739625 0.3485064 -0.20895411
000150 fa fe 5c 3e ab 5c 4d bd 46 b5 52 3e 0f 28 ef be
       0.21581641 -0.050137203 0.20576963 -0.4671025
000160 86 0d 01 bf 66 50 ef 3b bf 2a 1f bc 64 44 29 3e
       -0.5041126 0.0073032854 -0.009714781 0.16529995
000170 1e a9 1b bd c3 af 95 3d 2a a1 b1 bd 80 5f af bc
       -0.03800308 0.073089145 -0.08673318 -0.021407843
000180 bd a5 8b bd 78 28 16 bd 5b a1 22 bc 84 e2 07 bd
       -0.068187214 -0.036659688 -0.009926165 -0.033175007
000190 e0 1a db ba 78 30 8c 3d 91 d5 87 3d d4 43 64 bd
       -0.0016716383 0.06845182 0.066325314 -0.05572875
0001a0 4b 73 4b 3d 79 8d 91 bd 26 ba ef bc e6 1d ec bc
       0.0496705 -0.07107062 -0.029263567 -0.02882285
0001b0 24 28 6e 3d 9d 88 5b bd 35 25 73 be 3d 99 bc bd
       0.05814375 -0.05359708 -0.23744662 -0.092089154
0001c0 8d db 99 bd cd 6f 01 be e3 8c 55 3c 21 58 cc bb
       -0.07512579 -0.12640305 0.013034078 -0.0062360917
0001d0 4c d6 c3 bd 7a d8 b6 3d 40 54 8d bc 9a 1e 18 be
       -0.09562358 0.089280084 -0.017252088 -0.14855424
0001e0 25 13 90 3c d2 8f 8c bd 4b f5 79 3c 89 4c 5f 3d
       0.017587254 -0.06863369 0.015256236 0.05451635
0001f0 2a f6 44 3d 44 26 b2 bd f3 cb 01 bd fa a4 56 3c
       0.048086323 -0.08698705 -0.03168864 0.013100857
000200 3b 08 23 bd c8 45 b7 bd ef ff 13 be 49 d9 82 3d
       -0.03980277 -0.089488566 -0.144531 0.063891
000210 93 ca a9 3d 2a e6 19 be 4d 32 0b 3d e7 53 8f bd
       0.08290591 -0.15029207 0.033983517 -0.06998425
000220 67 30 ed bd 9f ce a2 bd f3 cc 55 3d 81 19 fa bd
       -0.11581498 -0.07949566 0.052197408 -0.12211896
000230 e8 94 41 3d f2 83 2b bc f8 ad 31 bd 30 cb de bd
       0.04726115 -0.01046847 -0.0433788 -0.10878599
000240 64 28 13 bd 9d d2 ea bd b7 ef bf 3d 6d 2b 7a bd
       -0.03592719 -0.114659525 0.09371894 -0.06107657
000250 f9 a0 97 3d 8c 87 fa bc 8f ba cf 3d 4c 19 02 bc
       0.0740375 -0.030582212 0.10143005 -0.007940602
000260 e2 72 12 3d fc 6a 9a 3b ef e6 35 3d b7 3e a9 3d
       0.035754092 0.0047124606 0.04440969 0.08263915
000270 75 53 07 3e d1 73 5d 3a 32 b2 b5 3c 66 69 e0 3d
       0.1321543 0.0008447739 0.022179697 0.10957603
000280 5c c9 d6 3d f8 ec a3 3d 73 84 37 3d 43 51 06 3e
       0.10487625 0.080041826 0.044804048 0.13116936
000290 32 49 dd 3c cd 20 b1 3d 65 65 08 be 1d 48 bd 3d
       0.027012441 0.086488344 -0.13319929 0.0924227
0002a0 be 87 9a 3c 4d 04 cc bd d6 bc 00 be 9e 47 8b be
       0.018863555 -0.09961758 -0.12572035 -0.27203077
0002b0 15 8a 0e 3e 45 c9 8f 3e e0 b2 2d 3e 0b 79 11 3e
       0.13919862 0.28083244 0.16962767 0.1420633
0002c0 6c 1d 95 3c a6 e2 ed bb f2 f7 dc bd 38 5e 1b be
       0.018202506 -0.0072596846 -0.10789479 -0.1517266
0002d0 25 aa 83 3d 95 3c 0b 3e c0 84 c2 bc e6 62 c7 bd
       0.06428937 0.13597329 -0.02374494 -0.0973566
0002e0 45 bb 61 3e 4e 5b 00 3e 64 31 85 3c 19 ed 99 3e
       0.22044094 0.1253483 0.016258903 0.30063704
0002f0 43 6b 35 3e 22 a7 36 3d 3d b6 c3 3c c3 38 ac 3d
       0.17716698 0.044592984 0.023890609 0.08409264
000300 25 18 19 3d ef ad 7f bd 66 df 8f 3d 20 3a 0c ba
       0.03737654 -0.062421735 0.07025032 -0.00053492375
000310 c7 16 39 3d 19 98 b5 bd 4d 52 f6 3d d1 87 d1 3d
       0.045187738 -0.08866901 0.120274164 0.10230983
000320 ce 6f e3 3d 3f 60 44 3c 5e 49 4e 3e d3 f2 08 3e
       0.111053094 0.0119858375 0.20145175 0.1337388
000330 6a ab 22 3e fe d9 5b 3e 84 61 8a 3c af 15 72 3c
       0.15885702 0.21469876 0.016892202 0.014775678
000340 30 f7 c8 bd d6 63 b5 bd 11 79 31 3c a8 c1 8c bd
       -0.09812772 -0.08856933 0.010832087 -0.068728745
000350 cd 6c 4e 3d fc c3 30 bd ae b0 75 3c 46 f9 c8 bc
       0.05039673 -0.043155655 0.014995737 -0.024532925
000360 bc b0 f8 3b 62 f3 96 3d cc 30 2e 3d c1 62 83 bc
       0.0075894278 0.0737064 0.042527005 -0.0160383
000370 31 db 92 3e 70 0d 8a 3d 4d 2f 24 bb f6 cb 4b 3e
       0.28682855 0.06740844 -0.0025052608 0.19902024
000380 2c f8 63 3e be 7d fe 3d e8 cf e4 3d 7c 6e c7 3d
       0.22262639 0.12426327 0.111724675 0.0973787
000390 87 15 9a 3d 9d 39 8c 3e c1 53 35 bc f7 b8 df 3d
       0.07523637 0.27387705 -0.011067332 0.10923951
0003a0 83 c8 5e 3e 02 fa 10 3d 5f 9c b9 bd 28 e1 05 3e
       0.21756177 0.035394676 -0.090630285 0.13074172
0003b0 32 af 1d bd 02 58 6f 3d ae 2b 05 3e 3e b5 6b 3d
       -0.038497157 0.05843354 0.13004944 0.057545893
0003c0 72 1e fb 3d 0c 37 70 bc f1 17 cb 3d ba 29 e2 3d
       0.12261666 -0.014661562 0.09916676 0.11043115
0003d0 b6 d6 96 3d 8d ff b3 3d b4 e0 10 3e 67 f6 7c 3d
       0.073651716 0.08788977 0.14148217 0.061758425
0003e0 9b 03 18 3d b2 e1 df 3d ed 35 0f 3e 5a 71 43 bd
       0.037112813 0.1093172 0.13985415 -0.047715522
0003f0 3d 15 c1 3d 28 cb 08 3e f2 61 cb bc 17 5c 37 bd
       0.09427879 0.13358748 -0.024826977 -0.044765558

conv2.bias f4 [20]
000000 90 7d 41 be 38 9d 66 3e 66 a2 3c 3e b8 ac 75 3d
       -0.18895555 0.22520912 0.18421325 0.05997917
000010 3f d8 ea bc cc b4 a8 3d 12 dd eb 3d e9 37 05 3d
       -0.028667567 0.08237609 0.11516775 0.032524023
000020 2c 04 a2 3d af f3 fa 3d 21 76 66 be f7 53 9f 3d
       0.07910952 0.1225351 -0.22506 0.07779687
000030 28 df 04 3e 0c 20 3d bc 68 f8 4e bd d8 31 0d 3e
       0.12975752 -0.011543285 -0.050529867 0.13788545
000040 08 cc 04 3e 2a fc c8 bd 2e 66 69 3e 87 12 28 3d
       0.12968457 -0.098137215 0.22792885 0.041033294

fc1.weight f4 [50, 500]
000000 be d4 b2 bc d3 c7 c4 bc 83 f8 ab 3d f2 9f 9d bc
       -0.021829959 -0.024021065 0.08397009 -0.019241307
000010 d3 5e dc 3c 50 1a b6 3c eb b0 81 bd b5 54 82 3d
       0.026900684 0.022229344 -0.063325725 0.06363813
000020 78 24 1c 3d 11 8c 16 bd 27 99 8f 3d 2e 65 77 bd
       0.038120717 -0.03675467 0.07011633 -0.060399227
000030 30 7b 96 bb 49 9b 2b bc 45 cc f8 3a c7 0f 41 bd
       -0.004592322 -0.010474035 0.0018981776 -0.047134187
000040 f9 6d ac bc 5a 81 99 3c 2c 57 13 3d 00 cd 86 bc
       -0.021048533 0.018738437 0.035971805 -0.016455173
000050 39 92 33 bd 73 f1 91 bc 68 a7 54 3d 9c f2 ea 3d
       -0.04384062 -0.017815327 0.051917464 0.11472055
000060 1f 13 09 bd 99 c9 76 3b 2c 69 ba 3c dc d1 11 ba
       -0.0334655 0.0037656783 0.022755228 -0.00055625825
000070 e9 3a 36 3b 95 e2 1e bd 0c 9e 2a 3d 0c 72 4f 3d
       0.002780611 -0.038790304 0.04165463 0.050645873
000080 3f 53 cc bc 21 62 19 bd 9b 99 01 bc c4 0f 1f bc
       -0.024942039 -0.0374471 -0.007910158 -0.009708349
000090 73 19 ac 3c 05 2e bd 3c ba 33 95 3d b7 38 5e bc
       0.021008229 0.023093233 0.07285257 -0.013563327
0000a0 0c c7 55 bd 67 e8 68 bd 50 6f 48 3d f2 e6 d3 bb
       -0.05219178 -0.05686226 0.04893428 -0.00646674
0000b0 7a b3 63 bd 51 3c 95 bc bb f5 a2 bc a6 a8 3f 3d
       -0.055591084 -0.018217238 -0.019892564 0.046791695
0000c0 4e 8f 8f 3c 42 9c 9d 3b 52 00 b5 3d db 29 49 3c
       0.017524388 0.004809887 0.08837952 0.0122780455
0000d0 63 1b ca 3d 10 db 28 bb 50 5c 2c 3d c1 94 42 3d
       0.09868505 -0.0025765337 0.042080224 0.047505144
0000e0 7a 38 23 bd 34 cf 9a 3d b9 fa f7 bb 74 03 27 3c
       -0.039848782 0.07559052 -0.0075677303 0.010193694
0000f0 d5 64 c7 3c 58 ee 28 3d d5 cd de 3c 9a 8f 5f bd
       0.024340073 0.041242927 0.027197758 -0.05458031
000100 fe e4 a9 bc b1 ea 70 3c 7a 26 26 bb c1 ed db bd
       -0.020739075 0.014704392 -0.0025352524 -0.10738707
000110 21 c9 34 bd e5 08 6b 3d ff b8 94 3d e2 a7 0e bc
       -0.044137124 0.05738153 0.07261848 -0.008707019
000120 56 70 26 be f1 75 8d 3d a2 0c 06 3d 1c 60 9a 3d
       -0.1625379 0.06907261 0.03272689 0.07537863
000130 53 d2 98 bd dd 66 fc 3c 46 4c b1 3b 4f 90 7d bd
       -0.07461991 0.030810768 0.005410704 -0.0619052
000140 07 14 98 3d 4f 56 b5 3d 80 eb 2d 3c ac dd 9d 3b
       0.07425695 0.08854353 0.01061523 0.004817685
000150 9d d0 25 3d d1 e6 07 3d 8e 18 dc 3c 79 34 60 bc
       0.040482152 0.033179108 0.026867177 -0.013684385
000160 e7 84 59 3d 67 7f 1c 3c da bf 4f bd 92 5e 9d 3c
       0.05310526 0.009551859 -0.050720073 0.019210134
000170 03 78 40 bd 13 d1 0d 3c f8 aa 1e 3c f9 b6 4f 3d
       -0.046989452 0.008655804 0.009684317 0.050711606
000180 11 eb 07 3d 36 8c 9d 3d c7 11 32 3d 75 9d f9 3d
       0.03318316 0.07692759 0.043473985 0.12188236
000190 60 8b f8 3b c1 80 a4 3a 62 65 a5 bc 58 e6 b8 3b
       0.007584974 0.0012550579 -0.020189945 0.0056426935
0001a0 5e fa 8a bd da 04 90 bc a8 b1 45 3d 33 aa 38 3d
       -0.06786035 -0.017580438 0.04826513 0.04508419
0001b0 7d 01 bd bc a3 2f e1 bd d0 8d 10 3d 1c 20 24 3d
       -0.023071999 -0.10995414 0.035291493 0.040069684
0001c0 aa d5 ef 3c db 14 3b bd e5 fb 61 3c e0 f4 86 3d
       0.029276688 -0.045674186 0.0137929665 0.06589675
0001d0 b2 73 bc bc d3 f7 5f bd bb a6 b7 bc d6 18 f4 3c
       -0.023004387 -0.054679703 -0.02241837 0.029796999
0001e0 fa 7f 6e 3d e1 b8 91 bc f7 36 a8 bd 77 9a be bd
       0.058227517 -0.017788352 -0.08213609 -0.093068056
0001f0 b5 47 10 3d 2e 1e be 3d 58 a3 b4 3d d4 b5 37 3d
       0.035224635 0.092831 0.08820218 0.04485114
000200 7a 10 00 3d 79 cf 20 3c 06 2b 53 3d 15 67 ad bd
       0.031265713 0.00981509 0.051554702 -0.08466927
000210 b4 87 ef 3d b8 05 b1 bd cd 9b ac 3c 76 01 57 3d
       0.11695805 -0.08643669 0.021070385 0.052491628
000220 f4 5c 8e bc 8b 4c 16 3d 07 49 74 bd 30 54 1b 3d
       -0.017378308 0.03669409 -0.059639957 0.037922084
000230 35 be e6 bc be 49 31 3c 24 83 ce bd df 5e 2f bd
       -0.02816687 0.010820804 -0.10083607 -0.042815086
000240 a3 c4 8b 3d d8 b3 e2 3c 0e 1b 1c bd 5a 1b 2f be
       0.06824615 0.027673647 -0.03811174 -0.17100278
000250 6e 68 b2 3d d8 18 4c 3d 48 ae 24 bd df ff 68 3d
       0.08711325 0.04982838 -0.04020527 0.056884643
000260 9e e0 d6 3d 1d fd 8d 3d 14 bd 07 bd c4 50 1a bd
       0.10492061 0.06933043 -0.033139303 -0.03767468
000270 34 1a a2 bd a6 69 b7 3d 59 1c 8f 3b c4 6c 4d bd
       -0.07915154 0.08955698 0.004367393 -0.050152555
000280 3d 48 f9 3c 8d 0c 8f bd 15 69 7c 3d d6 61 52 3c
       0.030429954 -0.06984816 0.06162365 0.012840709
000290 4b c1 16 bd 06 4e 10 bd 09 66 4d bd b1 a7 41 3d
       -0.036805432 -0.03523066 -0.050146136 0.047279064
0002a0 8d ba 07 3d 53 9a 5c bd 3f ab 09 be a0 f8 41 3d
       0.033136893 -0.053858113 -0.13444231 0.047356248
0002b0 81 68 cf 3d 30 fe e7 3d 27 cc 1d be 15 e8 22 bd
       0.101273544 0.11327779 -0.15409909 -0.039772112
0002c0 c2 98 b2 3c 0f 78 d6 bc d9 8b e8 bc 9e 7d b0 3c
       0.021801356 -0.026180295 -0.028386997 0.021544274
0002d0 41 19 0c 3d 88 52 3a 3c d1 7c a4 bc 94 ce 79 3c
       0.03420377 0.011372216 -0.020079048 0.015247006
0002e0 40 8b 17 3b ea 03 e7 3c f7 c9 9d bc 70 f2 fb bb
       0.002312377 0.028200109 -0.019261343 -0.007688813
0002f0 7c 06 13 3c 85 d5 9c bc 1f e1 0c bd 5e 22 03 bd
       0.008973714 -0.019144783 -0.03439438 -0.032015197
000300 34 f6 0f 3c 40 4b bd 3b 72 c5 94 3c d6 ed 96 bc
       0.008786727 0.0057767928 0.018160556 -0.018423956
000310 48 d8 0b bd 76 58 5f bc 7c 9e 30 3b 80 c9 fc bb
       -0.03414181 -0.013631931 0.0026949933 -0.0077144504
000320 38 dd 93 bb 13 98 90 bb 60 a1 04 3d b8 f0 93 3c
       -0.0045124553 -0.00441266 0.03238046 0.01805912
000330 c7 fa 83 3c ca 1b 7d 3d 24 df 8e 3d 0e b3 39 3b
       0.01611079 0.06179408 0.069761544 0.0028335485
000340 d4 44 4a 3d c4 c0 5f 3d 4a 8e 29 bd 3d dc 32 bc
       0.049382046 0.054627195 -0.041395463 -0.010916767
000350 0a 77 23 3d 41 66 27 3d 73 f7 4f 3d 77 9b 0c bd
       0.039908446 0.040869 0.050773095 -0.03432795
000360 e5 a8 84 bd 0a aa e8 bc dd d9 76 3c 89 07 af 3c
       -0.064775266 -0.028401393 0.015066591 0.021365898
000370 26 a9 8c bc f7 2a cd 39 37 10 f1 3c 81 75 b4 3d
       -0.0171705 0.00039132658 0.029426677 0.088114746
000380 5b 41 81 3d ba c0 13 3d 41 05 43 bd c9 3f f3 ba
       0.06311294 0.03607247 -0.047612432 -0.0018558438
000390 8c 6c 20 b6 f0 20 ab bc 1d 32 1e 3d 4b 6f 9b 3d
       -2.390504e-06 -0.02088973 0.03862201 0.07589587
0003a0 23 ad ac bb 7a d5 55 bc 49 45 79 3d 32 a7 10 bd
       -0.005269663 -0.013051385 0.06085709 -0.0353157
0003b0 ce 7b ca 3c 96 9d 37 3b c3 67 a7 bb 07 a3 0b 3d
       0.024717238 0.0028017513 -0.005108805 0.034091022
0003c0 1e 10 4b 3d cc 2d 84 bb e6 4b ab 3c 2b c2 43 3c
       0.049575917 -0.0040337797 0.020910215 0.011948149
0003d0 db 72 3a bd 1f 10 50 3d fd e7 2b bc e0 b2 b3 3d
       -0.04551969 0.050796624 -0.010492322 0.08774352
0003e0 b6 2b d4 3d b5 77 87 bc e2 79 d1 3b bc b8 18 ba
       0.103599 -0.016536573 0.0063927034 -0.00058258674
0003f0 14 d3 4a 3d e3 2e 87 bd 8d bb 59 bc 5c 94 42 3d
       0.049517706 -0.0660074 -0.0132893445 0.047504768

fc1.bias f4 [50]
000000 81 f0 51 3d cb 83 ba 3c ff d7 e9 bc 4b a9 2f 3d
       0.051254753 0.022767922 -0.028545378 0.04288606
000010 b8 03 1d 3c 31 a8 df 3c 20 bb fd 3c 02 f3 b1 3b
       0.009583406 0.02730188 0.030973017 0.00543058
000020 40 41 17 bd 87 5e 68 3d 7a aa 8e 3d 8d 6f cc bc
       -0.03692746 0.056730773 0.069661096 -0.024955535
000030 7a be a3 ba d8 97 49 3d fb f5 9d bc 23 74 56 bb
       -0.001249268 0.049217075 -0.019282332 -0.0032723031
000040 37 0c 83 bc 74 5d 6e 3d a3 ca 07 3d 1b b9 0b bd
       -0.015997035 0.058194593 0.033152234 -0.034112077
000050 21 13 15 3d 9f 7b 2a bd 79 74 83 bb 04 3e 6b 3d
       0.036395196 -0.0416218 -0.0040116874 0.05743219
000060 96 65 7a bc de f7 7e 3d 61 cb 81 3c 65 12 c7 3d
       -0.015283009 0.062248103 0.015844049 0.09720305
000070 0a e5 92 3b e5 c2 89 bc 11 66 04 3d a2 c4 23 bd
       0.00448287 -0.016816566 0.0323239 -0.039982446
000080 3e dc 85 3b 19 22 98 bd 15 a2 f6 3c 5e 54 1e bc
       0.004085093 -0.074283786 0.030106584 -0.009663669
000090 da ff 67 3c 36 35 04 bc 0d e8 93 3d 9c f1 68 3c
       0.014160121 -0.008069327 0.072219945 0.01421776
0000a0 9f 05 6e 3d ac 7d b9 bc 5b 58 22 bd 82 c9 8a 3c
       0.05811083 -0.022642933 -0.039635044 0.01694179
0000b0 76 91 0f bd 71 11 36 3d 03 f9 a7 3c ee 55 cd 3c
       -0.03505083 0.044450227 0.02050448 0.025065389
0000c0 01 43 77 3d c1 84 8b 3c
       0.060366634 0.017031075

final.weight f4 [10, 50]
000000 aa 21 2b 3e 25 c9 07 3d e3 20 ad 3c f5 78 91 3e
       0.1671206 0.03315081 0.021133846 0.28412595
000010 27 35 d0 3b 90 0b a9 3d 4c fe 9f bd 81 2c 6a 3e
       0.0063539925 0.082541585 -0.07812175 0.2286854
000020 ac f5 8b 3b 58 8e b1 3e 3a 6e e5 3e b2 4f 42 3c
       0.0042712297 0.34678912 0.4481066 0.011859821
000030 62 1b b3 3b 11 33 a4 3e db 08 59 bc 7a bd 02 3e
       0.005465911 0.3207021 -0.01324674 0.12767592
000040 b2 47 eb 3c 45 9e 7a 3e b7 a1 2b be d2 0b 6b 3e
       0.02872071 0.24474438 -0.16760908 0.22953728
000050 3b 46 ca bd 47 e4 d2 bd 5c a6 9f 3e 68 9f 24 3e
       -0.09876677 -0.10297447 0.3118161 0.16076434
000060 2b b8 33 3e b8 be 21 be a1 e5 58 3e 48 23 19 3e
       0.17550723 -0.1579541 0.21181346 0.14954865
000070 d0 1a 32 bd df 9b 55 be 63 c8 8c be 78 cb e0 bc
       -0.0434826 -0.20860241 -0.27496633 -0.027440771
000080 83 eb 42 be 16 4a 2d be a6 0c 12 be a4 4b 75 3e
       -0.19035153 -0.16922793 -0.14262637 0.23954636
000090 60 3f d7 3d 0e 1e b7 bd f9 a9 aa 3e 6f c5 e7 bd
       0.10510135 -0.08941279 0.33332804 -0.11316954
0000a0 08 97 fa bd da 2d e6 bd d0 76 b7 bd 76 2b 1b bc
       -0.12235838 -0.11239214 -0.089582086 -0.009470811
0000b0 e6 f1 53 bd fd 6b 1d 3d 91 9a 18 be f3 bf 8f bd
       -0.051744364 0.038433064 -0.14902712 -0.07019033
0000c0 51 9d 76 3e c7 eb 8f bd 80 21 77 be a3 95 94 3d
       0.24083449 -0.07027393 -0.24133873 0.072551034
0000d0 75 53 10 3d 44 f6 a9 3e 35 46 94 be cb 0f 94 3e
       0.03523584 0.33195698 -0.28959814 0.289183
0000e0 17 6b a9 3e b8 f9 8e be 9f 06 2e 3d ef ba a7 bd
       0.33089516 -0.27924895 0.042486783 -0.08189952
0000f0 7c 22 72 be 3a 37 e0 bd 1e 47 4f 3d ab 62 a0 be
       -0.23645967 -0.10948034 0.050604932 -0.31325278
000100 3c 69 4d 3e f2 61 85 3e ec ae 6b be ff 03 45 be
       0.20059675 0.2605129 -0.23015946 -0.19239806
000110 d5 6f 3a be 51 31 1e bc a7 14 83 3d 38 2a 00 3e
       -0.18206723 -0.009655313 0.064004235 0.12516105
000120 f0 b7 8c 3e f6 66 61 3e a0 23 7e be 01 b5 af be
       0.27484083 0.22011933 -0.24818277 -0.34317783
000130 d9 4f 8f 3e 1e 46 99 be 3c be d5 3d d2 50 cb 3e
       0.27990606 -0.29936308 0.10436675 0.39710099
000140 26 01 b9 3e a7 ad 1d 3d b3 7f cf be c3 8c a5 3e
       0.3613369 0.038495686 -0.40527114 0.32333955
000150 08 8e 00 3e 20 9a 8e bd ed 1b ca 3d aa a6 7e be
       0.1255418 -0.06962991 0.09868608 -0.24868265
000160 4e 36 4d 3e 47 51 e4 3a 95 42 55 be 72 11 f7 bd
       0.20040247 0.0017419242 -0.2082618 -0.12063874
000170 6d ed a8 3c e4 8a 47 be b7 78 f9 bd ab 4c 34 be
       0.020621026 -0.19486576 -0.12181228 -0.17607372
000180 e1 ed 1a be 94 07 96 bd 02 15 61 be 8e 0e 8f 3e
       -0.15129806 -0.07325664 -0.2198067 0.27940792
000190 20 73 3f 3e b8 a2 6a bd eb e8 f2 bc ff ec 6f be
       0.1869626 -0.057284087 -0.02965208 -0.2343025
0001a0 08 cc 87 3e 93 24 56 3e 27 cd 1d 3c 84 12 52 3e
       0.2652285 0.2091239 0.009631432 0.20514876
0001b0 57 b0 7e bd 31 e7 cc 3e f4 7e bd bd cc 1b 84 be
       -0.06217989 0.40020135 -0.0925273 -0.25802457
0001c0 71 8d 20 3e 97 31 cd 3e b2 9f de 3d 1a f4 35 3e
       0.15678956 0.40076897 0.10870303 0.17768899
0001d0 40 35 0b be 8e a9 8d 3e 96 3c 98 be b0 00 2a be
       -0.13594532 0.27668422 -0.29733723 -0.16601825
0001e0 d9 b4 f4 3c 8d 79 40 3c e0 f0 4e be 40 56 53 3e
       0.029871391 0.01174773 -0.20209074 0.2063837
0001f0 33 67 29 3e de 77 09 3e d9 f0 21 be c4 5f 20 3e
       0.16543274 0.13424632 -0.15814532 0.15661532
000200 45 57 dd bd 31 8d 10 be ee b1 27 be 94 ae 34 bd
       -0.10807661 -0.1411636 -0.16376469 -0.044111803
000210 2e 57 30 be 78 d7 d1 3d 77 d6 11 bd 70 ca 40 be
       -0.17220756 0.102461755 -0.03560492 -0.18827224
000220 d6 86 75 be 86 a5 5e 3e 34 8f 16 be 3a 97 06 3e
       -0.23977217 0.2174283 -0.14703065 0.13143626
000230 6e f0 37 be 91 3f de bd d3 e7 38 be e6 66 7f be
       -0.1796281 -0.10851968 -0.18057184 -0.24941596
000240 74 2c bc 3d 29 38 10 3e 95 12 8e bd e2 00 80 3e
       0.09188166 0.14083923 -0.06937138 0.25000674
000250 9d 39 9f 3d 34 f3 80 be 98 25 c0 be 0c 5c 76 bc
       0.07774661 -0.2518555 -0.37528682 -0.015036594
000260 96 90 a8 3c 9d dc a2 3e a4 68 87 3e 15 e4 af be
       0.020576756 0.3180894 0.26447022 -0.343537
000270 34 cc 6d be 04 d7 3e 3e ae 05 17 be a3 3a 71 be
       -0.23222429 0.1863671 -0.1474826 -0.23557524
000280 c9 bd cc bd 75 95 85 be eb 57 e4 bd 6b 6e 6e 3e
       -0.09997136 -0.2609059 -0.111495815 0.23284309
000290 e4 75 2c 3e c4 4a 3b 3e 7f a3 62 be 3c 4a 4f 3e
       0.16841847 0.1829024 -0.22132681 0.20243162
0002a0 ea 0b 27 3e 67 23 0b 3e 0e 6a 81 3d 07 a5 65 3d
       0.16313139 0.13587724 0.063190565 0.056065585
0002b0 f6 54 90 3e c7 20 5f 3e 42 3c ea 3d be 9f 26 3e
       0.2818982 0.21789847 0.114372745 0.16271874
0002c0 17 5d 6f 3e 5a ac 1a 3e f2 3b d7 3d 76 6e dd bc
       0.23375355 0.1510481 0.105094805 -0.027030211
0002d0 4a 88 f6 3c ff d0 a9 3c 01 01 31 3c 22 60 1f 3e
       0.030094285 0.02072954 0.010803462 0.15564016
0002e0 fd 37 92 3d 68 5a 37 be 82 86 42 3e 3a 96 7c 3d
       0.07139585 -0.17905581 0.18996623 0.061666705
0002f0 11 94 90 be 4d 58 8d be 9e 3f 13 3e a6 b5 95 3e
       -0.28237966 -0.2760643 0.14379737 0.2924015
000300 cd 3e 94 3d 2e 9b 66 be e4 9c aa bd 4c b7 83 be
       0.07238541 -0.22520134 -0.08330706 -0.25725782
000310 f8 b8 41 be ec e1 10 be 4d 9c ba be 6c 58 7e 3e
       -0.18918216 -0.14148682 -0.36447373 0.24838418
000320 2f 46 0b 3e ad 24 df 3d b2 10 46 3d 71 22 68 bd
       0.13600992 0.10895667 0.048355766 -0.05667347
000330 ca f1 56 3e 8a 94 4f 3e 72 4e a4 be 9d 52 4b 3e
       0.20990673 0.20271507 -0.320911 0.19855733
000340 e6 97 12 3d 0c 0b 07 be 38 f8 2e be 93 90 2a be
       0.035789393 -0.13187808 -0.17086875 -0.16656713
000350 ee 24 07 3e 6b 28 09 be 99 74 12 3e b2 49 4c 3e
       0.13197681 -0.13394324 0.14302291 0.19949988
000360 7f 7b 62 3d 02 52 e2 bd f4 c2 a9 be 2f e4 76 3e
       0.055293556 -0.11050798 -0.3315655 0.24110483
000370 2e f0 f6 3c b8 65 f1 bc 3e 2c 2c be b5 63 52 3e
       0.030143823 -0.029467449 -0.16813752 0.20545848
000380 33 30 43 3e 53 2d f5 3d cd ff 6e 3e 72 d6 71 be
       0.19061355 0.119715355 0.23339768 -0.2361696
000390 d1 20 13 3e 83 16 41 3e 06 d5 04 be 06 21 c7 3d
       0.14367987 0.18856244 -0.12971887 0.097230956
0003a0 97 3d fc 3d d2 f2 94 3e 5e f8 15 bd 22 e1 2f be
       0.12316435 0.29091507 -0.036613815 -0.17175725
0003b0 48 c7 ae be dc 6c 81 3e f7 4b 8a be 71 87 2b 3e
       -0.34136415 0.25278366 -0.27011082 0.16750886
0003c0 33 25 7b be 3f dd bb 3d 95 9f af bc 07 02 34 be
       -0.24525909 0.09173059 -0.0214384 -0.17578898
0003d0 8e 5b da 3e 4d b1 2f 3e a8 be 76 be 77 09 9a 3e
       0.42647976 0.17157479 -0.24096167 0.30085346
0003e0 a1 56 ae be d6 4f e0 3d cb 7a 8c be a8 73 93 bd
       -0.34050468 0.109527275 -0.27437434 -0.07199794
0003f0 f5 e6 aa 3e 05 f0 44 be 33 34 00 3e be 0f 95 3e
       0.3337933 -0.19232185 0.12519912 0.29113573

final.bias f4 [10]
000000 5b 08 42 bd 9e 9b 01 bc 93 ab 04 3e d0 f0 ca 3d
       -0.04737125 -0.007910637 0.12956075 0.099092126
000010 bf f2 b2 be 91 3a 50 bd 1a f3 ae 3d e0 b0 c3 3e
       -0.34950826 -0.050837103 0.08542462 0.38220882
000020 6a e3 17 be ac d4 ae be
       -0.14832845 -0.3414663
